deploy/src/emotion_model/config_emotion_predictor/model.tflite (tflite, 2172 bytes, 4 tensors)

sequential_1/normalization_1/truediv;sequential_1/normalization_1/Sqrt f4 [1, 7]
0	0x3f312151	0.6919146
1	0x3f1f07fc	0.6212156
2	0x3f7511eb	0.95730466
3	0x3f6d28d4	0.92640424
4	0x3f46d747	0.7767224
5	0x3f8fb113	1.1225914
6	0x3f846865	1.0344359

Const_1 f4 [1, 7]
0	0x40b9c0b4	5.8047733
1	0x406e6d83	3.725434
2	0x408a428c	4.3206234
3	0x40a5fdef	5.1872478
4	0x409262b9	4.574551
5	0x40cf6f9c	6.482374
6	0x40c2e48e	6.0903997

BiasAdd/ReadVariableOp f4 [8]
0	0x4082b1d7	4.084209
1	0x4083df82	4.1210337
2	0x4087bae9	4.241566
3	0x4001731e	2.0226512
4	0x40255b39	2.5836928
5	0x3ff48dff	1.9105834
6	0x3ffeb3b3	1.989859
7	0x3ffe2bc7	1.985711

MatMul f4 [8, 7]
0	0x3ea52ccc	0.3226074
1	0xbe7aba26	-0.24485072
2	0x3d03d16c	0.032182142
3	0xbd02beb1	-0.03192014
4	0xbf4e965d	-0.80698186
5	0xbc3a2f0b	-0.011363755
6	0xbe7c5e20	-0.24645281
7	0xbe61e19f	-0.22058724
8	0x3f3ff061	0.74976164
9	0x3dd73fc4	0.10510209
10	0x3e49508b	0.19659631
11	0x3db7da06	0.089771315
12	0xbd5ea8b8	-0.05436012
13	0xbe8f0fd7	-0.27941772
14	0xbed599ca	-0.41718894
15	0x3ea81df5	0.32835355
16	0x3bec5816	0.007212649
17	0x3e502c42	0.20329383
18	0x3f32010c	0.6953285
19	0xbd994aad	-0.074849464
20	0x3e3ccfe3	0.18438677
21	0xbe56767d	-0.20943637
22	0x3f02e815	0.5113538
23	0x3ba32af4	0.0049794856
24	0x3e0387e8	0.12844813
25	0x3f83fbcd	1.0311219
26	0x3dbe06d2	0.092786446
27	0x3f1e7070	0.61890316
28	0xbf324b24	-0.69645905
29	0xbcab8f14	-0.020942248
30	0xbd033a13	-0.032037806
31	0x3eb16a76	0.34651536
32	0x3f93620c	1.1514297
33	0xbe044363	-0.12916331
34	0x3f07c355	0.5303243
35	0x3f0c5739	0.5482059
36	0x3f105dba	0.56393015
37	0x3e55c89b	0.20877306
38	0xbd88d8cd	-0.066819765
39	0xbf466d1d	-0.77510244
40	0x3e6bc16d	0.23023005
41	0xbf478299	-0.7793365
42	0x3f02c88c	0.5108726
43	0xbf5e6f7f	-0.8688888
44	0xbe1918ed	-0.14950915
45	0xbe35983b	-0.17733853
46	0xbef85aa3	-0.4850665
47	0xbdf0450c	-0.1173192
48	0x3f3a24d4	0.72712445
49	0x3f4363af	0.7632398
50	0xbf853954	-1.040812
51	0x3e68e90f	0.22745155
52	0xbf37e264	-0.7182982
53	0xbf6ed3b1	-0.93291765
54	0x3e78ecfe	0.24309155
55	0xbe0d2eea	-0.13787428
